…
    "    model.add(Dense(1, activation='relu'))\n",
    "    \n",
    "    return model \n",
    "\n",
    "model = get_model()"
   ]
  },
  {
   "cell_type": "code",
   "execution_count": 10,
   "metadata": {},
   "outputs": [
    {
     "name": "stdout",
     "output_type": "stream",
     "text": [
      "Model: \"sequential\"\n",
      "_________________________________________________________________\n",
      "Layer (type)                 Output Shape              Param #   \n",
      "=================================================================\n",
      "dense (Dense)                (None, 128)               1408      \n",
      "_________________________________________________________________\n",
      "dense_1 (Dense)              (None, 128)               16512     \n",
      "_________________________________________________________________\n",
      "dense_2 (Dense)              (None, 128)               16512     \n",
      "_________________________________________________________________\n",
      "dense_3 (Dense)              (None, 128)               16512     \n",
      "_________________________________________________________________\n",
      "dense_4 (Dense)              (None, 128)               16512     \n",
      "_________________________________________________________________\n",
      "dense_5 (Dense)              (None, 128)               16512     \n",
      "_________________________________________________________________\n",
      "dense_6 (Dense)              (None, 1)                 129       \n",
      "=================================================================\n",
      "Total params: 84,097\n",
      "Trainable params: 84,097\n",
      "Non-trainable params: 0\n",
      "_________________________________________________________________\n"
     ]
    }
   ],
   "source": [
    "# Print the model summary\n",
    "model.summary()\n"
   ]
  },
  {
   "cell_type": "code",
   "execution_count": 11,
…
